…
    "* Plot the learning curves for loss vs epoch and accuracy vs epoch for both training and validation sets.\n",
    "* Compute and display the loss and accuracy of the trained model on the test set."
   ]
  },
  {
   "cell_type": "code",
   "execution_count": 12,
   "metadata": {},
   "outputs": [
    {
     "name": "stdout",
     "output_type": "stream",
     "text": [
      "Model: \"sequential\"\n",
      "_________________________________________________________________\n",
      "Layer (type)                 Output Shape              Param #   \n",
      "=================================================================\n",
      "flatten (Flatten)            (None, 3072)              0         \n",
      "_________________________________________________________________\n",
      "dense (Dense)                (None, 512)               1573376   \n",
      "_________________________________________________________________\n",
      "dense_1 (Dense)              (None, 256)               131328    \n",
      "_________________________________________________________________\n",
      "dense_2 (Dense)              (None, 256)               65792     \n",
      "_________________________________________________________________\n",
      "dense_3 (Dense)              (None, 128)               32896     \n",
      "_________________________________________________________________\n",
      "dense_4 (Dense)              (None, 64)                8256      \n",
      "_________________________________________________________________\n",
      "dense_5 (Dense)              (None, 10)                650       \n",
      "=================================================================\n",
      "Total params: 1,812,298\n",
      "Trainable params: 1,812,298\n",
      "Non-trainable params: 0\n",
      "_________________________________________________________________\n"
     ]
    }
   ],
   "source": [
    "#Creating, compiling and analysing the model\n",
    "from tensorflow.keras import Sequential, optimizers\n",
…
    "* Plot the learning curves for loss vs epoch and accuracy vs epoch for both training and validation sets.\n",
    "* Compute and display the loss and accuracy of the trained model on the test set."
   ]
  },
  {
   "cell_type": "code",
   "execution_count": 19,
   "metadata": {},
   "outputs": [
    {
     "name": "stdout",
     "output_type": "stream",
     "text": [
      "Model: \"sequential_1\"\n",
      "_________________________________________________________________\n",
      "Layer (type)                 Output Shape              Param #   \n",
      "=================================================================\n",
      "conv2d (Conv2D)              (None, 30, 30, 16)        448       \n",
      "_________________________________________________________________\n",
      "batch_normalization (BatchNo (None, 30, 30, 16)        64        \n",
      "_________________________________________________________________\n",
      "max_pooling2d (MaxPooling2D) (None, 15, 15, 16)        0         \n",
      "_________________________________________________________________\n",
      "conv2d_1 (Conv2D)            (None, 13, 13, 16)        2320      \n",
      "_________________________________________________________________\n",
      "batch_normalization_1 (Batch (None, 13, 13, 16)        64        \n",
      "_________________________________________________________________\n",
      "max_pooling2d_1 (MaxPooling2 (None, 6, 6, 16)          0         \n",
      "_________________________________________________________________\n",
      "conv2d_2 (Conv2D)            (None, 4, 4, 16)          2320      \n",
      "_________________________________________________________________\n",
      "dropout (Dropout)            (None, 4, 4, 16)          0         \n",
      "_________________________________________________________________\n",
      "flatten_1 (Flatten)          (None, 256)               0         \n",
      "_________________________________________________________________\n",
      "dense_6 (Dense)              (None, 256)               65792     \n",
      "_________________________________________________________________\n",
      "dense_7 (Dense)              (None, 128)               32896     \n",
      "_________________________________________________________________\n",
      "dense_8 (Dense)              (None, 10)                1290      \n",
      "=================================================================\n",
      "Total params: 105,194\n",
      "Trainable params: 105,130\n",
      "Non-trainable params: 64\n",
      "_________________________________________________________________\n"
     ]
    }
   ],
   "source": [
    "#Creating, compiling and analysing the model\n",
    "from tensorflow.keras.layers import Conv2D, MaxPool2D, BatchNormalization, Dropout\n",
…
